aml-batch-endpoint/model/weights.pth (torch, 65427 bytes, 4 tensors)

sequence.1.weight f4 [20, 784]
000000 7e 53 01 bd f2 30 0e bc b3 b5 19 ba 22 af ed bc
       -0.031573765 -0.008678662 -0.0005863562 -0.029014174
000010 7e b8 b6 ba 00 43 af 3c 6b ab 03 3c c8 5d 9c bc
       -0.0013940481 0.021394253 0.008036475 -0.019087687
000020 9c 9c 44 bd b6 15 98 bc db 3c 02 3d 0d dd 3b bd
       -0.048000917 -0.01856504 0.031796318 -0.045865107
000030 e9 99 9e bd 4a e0 25 3e 08 8a 66 3e c3 2e af 3d
       -0.077442 0.1619884 0.22513592 0.08553841
000040 d8 a5 c1 3c bb 62 f5 3c b5 43 a1 bc 1b b3 10 bd
       0.02363865 0.029954305 -0.019685606 -0.03532706
000050 a9 35 4a 3a 2b 64 85 3c 00 f4 aa 3c 47 cc c6 bc
       0.00077136845 0.016283115 0.020868301 -0.024267329
000060 08 30 98 39 36 d3 b8 bc ab 3b 89 bc 40 58 ec bc
       0.00029027485 -0.02256165 -0.016752085 -0.028850675
000070 9c a1 e9 3c cb e1 22 bc 76 97 40 bb 88 e3 ca 3b
       0.028519444 -0.009941529 -0.0029387153 0.0061916746
000080 02 3b 29 bd b6 41 d1 3c b3 90 84 3d b8 ca 01 bd
       -0.04131604 0.025544029 0.06472912 -0.03168747
000090 46 1e 2a bd af 5e 3f 3d 97 64 2c 3c a1 58 22 bd
       -0.041532777 0.046721157 0.010522029 -0.039635304
0000a0 16 62 8f 3d 66 81 17 3e a5 43 19 3d 30 6d eb 3d
       0.0700113 0.14795455 0.037418026 0.11495435
0000b0 5c f5 5b 3d b8 ad 4f 3d b7 3d a7 3d 0d 05 4e bb
       0.05370079 0.05070278 0.08166068 -0.0031436116
0000c0 ea 00 ed 3a 05 1f 84 3d 9a 65 a7 3d b8 58 76 3d
       0.0018081937 0.06451229 0.08173676 0.060143203
0000d0 b0 59 6b 3d b0 49 99 3d 2c 5e d2 3c 1b 2a 1e bd
       0.05745858 0.07484758 0.02567967 -0.038614374
0000e0 9c 67 7d 3c b5 b4 64 3c a0 de e3 3c de 7c eb bc
       0.015466597 0.0139591 0.027816117 -0.028746065
0000f0 e2 8a 69 bd ee 27 99 bc 07 27 90 3d d1 e3 35 3d
       -0.057017215 -0.018695798 0.07038694 0.044406716
000100 11 08 ab bd 60 64 c8 bd 0c 7d 3d bd bb c1 d2 bc
       -0.08351148 -0.0978477 -0.046261832 -0.025727144
000110 e9 2c 81 3c a0 b8 67 bd d7 a7 37 be d8 93 5f bd
       0.015768485 -0.056572556 -0.1793512 -0.054584354
000120 63 34 a1 3c 93 2e 7f 3c 2d f5 8a bc 8e c6 ff ba
       0.0196783 0.015575069 -0.016962612 -0.001951413
000130 c1 4c 30 3c ef ae 43 3d 06 fd ab bc ea fa b9 bc
       0.010760487 0.04777425 -0.020994674 -0.022702653
000140 82 f3 bc ba e4 72 b0 3d 85 e6 a4 3c 9f 6e 63 3c
       -0.0014415833 0.08615664 0.020129452 0.013881355
000150 af 8f 2b 3d 30 f9 84 bc f9 c7 8c 3b c4 27 c9 bc
       0.041885074 -0.016232103 0.0042962995 -0.024555095
000160 81 2c 57 3c 27 c0 64 bc 76 a3 0f 3d f6 83 30 bd
       0.013133169 -0.013961828 0.035067998 -0.043094598
000170 bd 64 05 be c2 68 16 be 3a 8c a0 bd 86 a0 89 bc
       -0.1302671 -0.146884 -0.07839246 -0.016800176
000180 f8 f2 21 b8 e0 ff c5 bd f8 b7 ca bd 9f e4 71 bc
       -3.8611674e-05 -0.09667945 -0.098983705 -0.01476398
000190 54 64 9b ba c8 16 49 3c 3b 06 e7 bc 4a a3 94 bd
       -0.0011855462 0.012273498 -0.028201213 -0.072577074
0001a0 4b 38 e4 bd 02 38 07 bd 5a 4c 7e 3c 00 26 3a 3c
       -0.111435495 -0.033012398 0.015521133 0.011361599
0001b0 ac 46 f1 3c 2f 48 0c 3e a4 b6 96 3d 18 40 48 3c
       0.029452644 0.13699411 0.07359055 0.012222312
0001c0 6c 9b 33 3b 53 3b 93 3d 25 21 39 bb cf 3d 40 bd
       0.002740587 0.071890496 -0.0028248515 -0.046933945
0001d0 0e 96 23 bd 65 19 c0 bc a5 f1 a6 bd 5f c9 95 bd
       -0.039938025 -0.023449609 -0.08151559 -0.07313799
0001e0 49 87 dd bd 52 b1 c8 bd 3c 6d d9 bc b0 16 ea 3b
       -0.10816819 -0.09799446 -0.026541345 0.007143818
0001f0 9c ee 1d 3c 60 a0 ee bd 32 e1 0f be 9b d9 38 bd
       0.009639408 -0.11651683 -0.14050749 -0.0451294
000200 49 3d d4 3c f9 99 ea bc bd 84 fa bb 79 bf 95 bd
       0.02590813 -0.028637873 -0.007645218 -0.07311911
000210 ff 11 77 bd 0d 1c fb bc 6b 42 b5 b8 13 a0 29 3d
       -0.060319897 -0.030653024 -8.643124e-05 0.041412424
000220 08 d7 2a 3d e7 17 af 3d 22 ac a6 3d e4 ea ae 3b
       0.041708976 0.08549481 0.081383005 0.0053380597
000230 17 fe 84 3b f1 e0 bb 3d 39 66 90 3c 84 ff 6f 3c
       0.00405861 0.091737635 0.017626869 0.014648322
000240 1f 71 54 bd a6 64 05 bd 86 16 4a bc a3 03 2f bd
       -0.051865693 -0.03256669 -0.012334472 -0.042728078
000250 d9 ed 8e bd cf 68 1e be f7 00 b4 bd 87 39 e2 bc
       -0.069789596 -0.15469669 -0.087892465 -0.027615322
000260 09 89 5d 3d db 2e f2 bd c3 3f 0a be df 20 1c bc
       0.054085765 -0.11825343 -0.13500886 -0.009529321
000270 52 6b cb ba 3e 93 97 3c 83 f9 31 bd 98 f3 de bd
       -0.0015519655 0.018502828 -0.043450844 -0.108863056
000280 65 96 c2 bd 70 78 95 bc bd ab b4 bd 04 3e bb bb
       -0.09501342 -0.018245906 -0.08821819 -0.00571418
000290 78 ed d6 bb 08 6d d1 3d 36 24 26 3e 20 43 05 3d
       -0.00655907 0.10225874 0.16224751 0.03253472
0002a0 e6 98 36 3d a2 2d 75 3d fa 98 9c bb 0b 77 cc 3c
       0.04457941 0.059857972 -0.0047789784 0.024959108
0002b0 af 52 f7 bc 51 8f e2 bc 31 ef 67 bd b5 a7 30 bd
       -0.030190794 -0.02765623 -0.056624595 -0.043128688
0002c0 7a 61 ef bd c9 53 a1 bd 08 c6 0c bd 2c 5a d3 bc
       -0.11688514 -0.07877309 -0.034368545 -0.025799833
0002d0 49 5a b9 bc a4 cc 92 bd 44 2c 44 be 5d 51 ca bd
       -0.02262606 -0.07167938 -0.19157511 -0.098788
0002e0 05 08 66 bc 87 7d 10 bc 4f 08 26 bd 23 f2 01 be
       -0.014039998 -0.008818991 -0.040535267 -0.12690024
0002f0 72 f7 95 bd 23 bf 8c bd 27 9b 13 bd 7d a3 2c bd
       -0.07322587 -0.06872394 -0.036036637 -0.042148102
000300 7f 2a 66 bd 84 a7 45 3d 4c 6e 4d 3e d8 93 cd 3d
       -0.05619287 0.04825546 0.20061606 0.100379646
000310 0a 40 e0 3c 63 d4 69 3d e5 9a d3 bc d5 71 cb 3b
       0.027374286 0.057087313 -0.025830695 0.006208638
000320 2f 17 a4 bd 61 89 88 bd 93 1f 88 bd ba ad 8d 3c
       -0.080122344 -0.06666828 -0.06646647 0.017294753
000330 e6 28 51 bd df 3b 4a bd 62 c5 cc 3b 45 be a9 bc
       -0.051064394 -0.049373504 0.006249116 -0.02072061
000340 4c 4e 04 bb dc b1 c6 bd eb 2a 53 be 44 fa 1d be
       -0.002018827 -0.09701893 -0.2062184 -0.154275
000350 a9 7f 8d bd 50 86 9f 3c 1e b7 8b bc df 7c 14 bd
       -0.06909115 0.019473225 -0.01705509 -0.0362519
000360 07 9f 39 3c d8 0c ad bd af 23 bd bd 38 6c 65 bd
       0.011329419 -0.084497154 -0.09235322 -0.05601141
000370 14 d9 d9 bc 43 b3 d0 3d be a1 f4 3d 6b fa 97 3d
       -0.026592769 0.101904415 0.119449124 0.0742081
000380 05 60 6b 3d 21 5d 8b 3d d5 b1 8c bc 60 ee fc 3c
       0.05746462 0.06804872 -0.01717464 0.030875385
000390 2a 78 a2 bd 83 4e e9 bc 89 a4 b8 bd 91 cf c0 bd
       -0.07933076 -0.02847982 -0.090157576 -0.0941459
0003a0 ca b3 9b bd fb c6 79 bd 38 28 55 bd fc 66 ca 3b
       -0.076026514 -0.06098078 -0.05204031 0.0061768275
0003b0 d5 da 12 bd ee 6f 47 be 4a d0 65 be 7c e1 36 be
       -0.035853226 -0.19476292 -0.22442737 -0.17859453
0003c0 a5 2c 54 3a 8b ef 21 3d 31 9c a4 bc 72 04 b9 bd
       0.0008093811 0.039535087 -0.02009401 -0.09034051
0003d0 d8 6b 9a bd f6 52 89 bd 01 82 93 bd 83 64 64 bd
       -0.07540101 -0.06705277 -0.07202531 -0.055759918
0003e0 a7 25 56 3c 32 e8 ac 3d 6c d7 05 3e 29 4e 94 3d
       0.0130705 0.08442725 0.13070458 0.0724147
0003f0 3d 11 68 3d 08 92 f7 3d 98 fb c4 ba 37 37 01 3d
       0.056657065 0.120884 -0.0015028594 0.031546798

sequence.1.bias f4 [20]
000000 31 ab 12 be 03 ad 5e 3e 38 fd 72 3e d3 37 d0 be
       -0.14323117 0.21745686 0.23729408 -0.4066759
000010 34 b7 33 3e 35 f0 18 3e 85 2d e7 3e 12 60 f3 3e
       0.17550355 0.14935382 0.45151916 0.47534233
000020 3d 1e 1a 3f dd 82 46 3c c9 cc 89 3e 56 17 8e 3e
       0.6020239 0.012116161 0.2691405 0.2775218
000030 d3 28 5f 3f 5c bb a3 3c 87 76 8f bd 63 e4 3d 3d
       0.8717167 0.0199868 -0.07005029 0.046360385
000040 07 3a 02 bf d7 b8 60 3f d3 31 29 3f 5a 54 f5 3e
       -0.5086979 0.87782043 0.6609165 0.47915918

sequence.3.weight f4 [10, 20]
000000 a2 66 cf be 50 25 94 be e3 b0 3f 3f 66 f7 e6 3e
       -0.4050799 -0.28934717 0.7487928 0.45110625
000010 5e 31 1e 3f e6 be 30 3e c2 eb c9 3e 07 c1 2b 3e
       0.6179408 0.17260322 0.3943768 0.16772853
000020 a7 f6 62 bd 12 9e a6 3e 98 5f 52 3f f2 e8 c6 be
       -0.055411007 0.32542473 0.82177114 -0.38849598
000030 06 0d 26 bf 1d 3c 31 3e ff 0e e0 bd 2a fd bf be
       -0.6486362 0.17308088 -0.1094036 -0.37497836
000040 3f 3b 17 bf 6a 58 0c be 5c 36 c6 3d f8 1b e2 3e
       -0.5907478 -0.13705602 0.09678337 0.44161963
000050 b4 9f 28 be e2 9c 65 3f 07 4f 6b 3f cb bc 72 be
       -0.16467172 0.8969251 0.9191746 -0.23704831
000060 58 01 ea 3e 9a d0 2a 3e 0f bd 22 bf 6c 94 47 bf
       0.4570415 0.16681138 -0.6356973 -0.7796085
000070 e0 a2 7e be 0d 24 d3 be d1 a0 d9 be b4 75 be 3e
       -0.2486682 -0.41238442 -0.42505506 0.37199175
000080 1e 20 fe 3c 5a b6 14 3e 09 d1 8f bc 10 7c 48 bf
       0.031021174 0.14522687 -0.01755573 -0.78314304
000090 e7 a8 05 3f 68 5f b6 be ce 4b 06 be 2c 0d 1a bf
       0.5221085 -0.35619664 -0.13114855 -0.6017635
0000a0 36 b2 dd bd c5 7d 16 be 94 e5 c7 be a8 81 44 be
       -0.10825007 -0.14696415 -0.39042342 -0.19190085
0000b0 d3 2a 8e 3f cc 25 ce 3e 14 ee 18 3e 4f 5f 85 3e
       1.1106819 0.40263212 0.1493457 0.26049277
0000c0 17 67 ce be a4 0b ca bb 1b c3 1b bf 0c 87 bd 3e
       -0.40313026 -0.0061659385 -0.6084458 0.37017095
0000d0 b8 80 35 bf b2 41 6b be 8c 75 48 be be 6e fe 3e
       -0.70899534 -0.2297428 -0.1957609 0.49693865
0000e0 ed 17 51 be 59 5f 18 3f 5b 1a 6d be aa bf 8a be
       -0.20419283 0.5952049 -0.23154585 -0.27099353
0000f0 81 a0 65 be 21 4f 1d 3f a3 92 a7 be f6 07 22 bf
       -0.22424509 0.61448866 -0.32729062 -0.632934
000100 f7 5d f3 3e 5d a6 a3 3d 2c 59 26 3e 01 f0 ae 3e
       0.47532627 0.07990716 0.16244954 0.34167483
000110 cd 9e ed be 7d 68 03 bf 54 56 9e bd f8 b3 25 bc
       -0.46410218 -0.5133131 -0.077313095 -0.010113709
000120 67 fb b6 3e bb 6e a6 bd 31 00 d0 3e 4b 96 be 3c
       0.3573868 -0.08126589 0.40625146 0.023265025
000130 bb b0 4c be 8a 58 e7 be da 64 85 be 2b 04 02 3f
       -0.19989292 -0.45184737 -0.26053506 0.5078761
000140 4b df e2 be 7f 53 f4 3d 53 f5 3c bf 36 e7 17 3d
       -0.44310984 0.11929988 -0.73811835 0.037085734
000150 59 cb 1f 3f 82 21 0f 3e a5 f1 c5 3e 61 e1 17 bf
       0.6241966 0.13977626 0.38660923 -0.59328276
000160 39 0f 44 bf 8a 42 d1 3e a7 91 a5 be 06 45 b1 3e
       -0.7658573 0.40871078 -0.32337686 0.34622973
000170 b3 e2 4e 3e 57 7d 0e bd 05 48 92 3e be d5 39 3f
       0.20203666 -0.034787502 0.28570572 0.7259177
000180 d5 91 ba 3e 44 97 e9 bd df 32 d1 3d 19 f2 54 be
       0.36439386 -0.11405805 0.10214781 -0.20795478
000190 a3 36 93 be 38 53 01 be 9b 0b dc be 44 d6 50 bf
       -0.28752622 -0.12629402 -0.42977604 -0.81576943
0001a0 2a d2 d1 bf 2f 70 58 3f ee 4f 33 3e 9f 28 7d 3f
       -1.6392262 0.8454618 0.1751096 0.9889011
0001b0 b7 19 5b 3f 98 1e d6 3e da 67 d6 bd 15 6a ad 3e
       0.8558611 0.41820216 -0.10469027 0.33869997
0001c0 b6 7c 1a 3f 32 71 dd 3e ab 08 4a be d1 07 9c be
       0.60346544 0.43250424 -0.19729869 -0.30474713
0001d0 9f 9b 3c be 36 1d 19 3f 53 61 62 3f 79 93 48 bf
       -0.1841874 0.598102 0.88429755 -0.78350025
0001e0 e6 c9 ca be c8 a3 12 bf 30 b3 cd 3d 02 b9 2c bd
       -0.3960716 -0.5728116 0.10043943 -0.042168625
0001f0 c8 73 38 3f 0f a1 93 bd 20 15 1f 3e 8a c3 dc be
       0.7205167 -0.07208454 0.15535402 -0.43117934
000200 73 0f 88 3d 3b 61 71 3e 66 ac 3c 3f 2a a9 2e 3e
       0.06643572 0.23572247 0.7370056 0.17056718
000210 77 a7 4f bf d7 b8 bb 3d 60 ac 06 3f 0e e2 15 3f
       -0.81114906 0.09166115 0.52606773 0.5854806
000220 c4 07 e3 be 8d 7d e2 be de d9 80 3f 5d 2c f9 3e
       -0.44341862 -0.44236413 1.0066488 0.4866666
000230 32 40 32 3f 9a 67 11 bf dd a8 be 3d 58 53 ae 3e
       0.69629204 -0.5679871 0.09309552 0.3404796
000240 21 80 91 bf 21 5d 1b be 38 12 e5 3d d7 f8 95 be
       -1.1367227 -0.15172245 0.111851156 -0.29291412
000250 2c 00 e8 3d 2a be 21 bf d0 c6 2e be 07 55 3a 3e
       0.11328158 -0.6318079 -0.17068028 0.18196498
000260 70 58 92 3f bb 87 f0 be 48 f8 46 bf 15 5a 49 3b
       1.1433239 -0.46978554 -0.777226 0.003072386
000270 9c e2 b7 3e 69 c8 4b 3e 96 47 19 bf 81 9c e3 3e
       0.35915077 0.19900669 -0.59874856 0.4445534
000280 e1 f6 6d 3f da 26 2c be 6c ee c3 be fb 70 ad bd
       0.9295483 -0.16811696 -0.3826784 -0.08468815
000290 19 fa 0a 3e 55 12 ef be 47 5b ad 3e 2e d3 4f be
       0.13571967 -0.46693674 0.33858702 -0.20295402
0002a0 d3 f4 be 3d a8 30 7d 3f 35 ae 89 be 18 76 be be
       0.0932404 0.9890237 -0.26890722 -0.37199473
0002b0 b5 60 50 be 5c ee ef bb f3 51 4f 3c 8f 01 85 bf
       -0.20349391 -0.007322116 0.012653816 -1.0391101
0002c0 ec 75 d8 3e d3 18 e0 3e 8b 2b 8d be 7d 95 c4 3e
       0.42277467 0.4376894 -0.27572283 0.383953
0002d0 9f f6 32 3f ce db 7c be c1 1e 19 bd 2f 7e 85 3f
       0.69907564 -0.24693224 -0.037382845 1.0429133
0002e0 5e e5 67 bf 6d e9 e5 be df 73 2b bf 95 10 43 3f
       -0.9058436 -0.44904652 -0.6697368 0.7619718
0002f0 33 3a d9 3e d8 e3 c2 be 24 f4 b7 3d 93 4a 1e bf
       0.42427215 -0.38064456 0.08982113 -0.6183254
000300 af f6 84 3e 2c 9c ed bd 2b d9 b1 3d 31 70 93 3e
       0.25969455 -0.11602053 0.08684 0.28796533
000310 05 6d 78 3e 0e d2 53 bf 74 0a f2 be 94 1f d8 be
       0.24260338 -0.82742393 -0.472736 -0.42211592

sequence.3.bias f4 [10]
000000 34 f0 35 3e e7 2c a9 be 31 f5 63 3e de 68 b0 3e
       0.17767411 -0.3304207 0.22261502 0.34455007
000010 4d 9e 3e bf 85 df 4f 3f 6f fc 9c 3e e1 d3 d4 bc
       -0.744603 0.8120044 0.30661342 -0.025979938
000020 53 8e 9d be 3d 61 58 bf
       -0.30772647 -0.84523374
