aml-batch-endpoint/model/weights.pth (torch, 65427 bytes, 4 tensors)

sequence.1.weight f4 [20, 784]
000000 fc f9 ad bc f3 ee fe 3b 87 f5 df 3b 92 e5 9c ba
       -0.021237366 0.00777995 0.006834689 -0.0011970273
000010 3f a6 61 bd 35 a6 5d bc f1 7f 30 3d 94 12 0a 3d
       -0.055090185 -0.013528396 0.043090764 0.033709124
000020 8e 83 0b be 69 ea 12 be fb bd db bc c2 f9 14 3e
       -0.13624403 -0.14347233 -0.026823988 0.145484
000030 95 9f 0c 3a 26 1f 8f 3d 50 e1 99 3d ff 96 81 3d
       0.0005364356 0.06988363 0.07513678 0.06327628
000040 46 73 51 3e 9b 11 1e 3e eb de 35 bd 6d 43 0f be
       0.2045413 0.15436403 -0.044402044 -0.13990565
000050 68 af 4c bd c6 33 ac 3b 4d ad fa 3c 9a 6b 87 3c
       -0.049971968 0.0052551953 0.030600214 0.0165308
000060 8b 0c dc bc be 28 8e 3c 1a 8e 80 bc 78 5d 51 3c
       -0.02686145 0.017353412 -0.01569276 0.012778632
000070 37 c7 de bc 18 e7 f2 bc 80 aa 6a 3c 91 a7 8a bb
       -0.027194602 -0.02965121 0.014322877 -0.0042314013
000080 ee 57 3f bd 2c dc 7b 3b 51 e2 ce 3c 91 f5 2d be
       -0.046714716 0.0038430793 0.0252544 -0.16988207
000090 91 ab aa bb e0 06 9e 3e f1 14 21 3e 73 0b 84 bc
       -0.0052084406 0.3086462 0.15730645 -0.01611874
0000a0 40 cc cc 3d ae 71 64 3e 82 5b 3b 3e 66 5e 07 3d
       0.09999895 0.2230899 0.18296626 0.03304901
0000b0 e7 c7 43 3a 94 c0 de 3d ea b0 7f 3e 41 fb 9c 3d
       0.00074684474 0.10876575 0.24969831 0.076651104
0000c0 66 d1 0f be e4 90 10 bd 8d 17 4b 3d 91 30 1b 3d
       -0.14044723 -0.03529443 0.049583007 0.037888113
0000d0 fa f5 82 3d 30 0f 4e 3d 97 c7 1f 3c 1b 02 aa ba
       0.063945726 0.050307453 0.009752176 -0.0012970598
0000e0 38 c4 c3 bb e8 83 0f 3c 6a 9d a6 bc 2e 0b 25 bc
       -0.005974319 0.008759476 -0.020338733 -0.010073466
0000f0 27 4e 56 bc 3b 8a da bc 75 92 94 bd d9 1b 30 bd
       -0.013080156 -0.026677242 -0.07254497 -0.042995308
000100 ea 79 4f 3d 17 bf b2 3d bb da ad bd 74 77 8d bd
       0.050653376 0.08727854 -0.08488985 -0.069075495
000110 07 0e 06 be dc d1 93 bd db 8c e8 bd 6a 97 19 be
       -0.13091289 -0.07217762 -0.11354991 -0.14999166
000120 5d c3 2b bd d8 e7 f9 bc d4 37 8c bb b4 70 2b 3d
       -0.04193436 -0.03050606 -0.004279116 0.04185553
000130 59 fd bf 3b 22 04 8e bd 55 ff 83 bd 1c e7 29 3d
       0.005859059 -0.06934382 -0.06445185 0.04148017
000140 b8 9e a3 3c 96 2b cb 3c 43 38 40 bc d2 31 0f 3b
       0.019973144 0.024801057 -0.011732164 0.0021849764
000150 65 11 af 3c 9d 61 40 bc e6 58 07 bd d6 ba 27 bc
       0.021370599 -0.011742023 -0.033043765 -0.010237416
000160 ad 06 29 bd 77 f1 5f bc ec a3 c6 bd 7d db 86 bb
       -0.041266132 -0.01366841 -0.09699234 -0.0041155205
000170 a7 19 20 bd 0b 78 e8 bd ba d5 09 bd fa 8e e4 3d
       -0.039086964 -0.113510214 -0.03365109 0.11160083
000180 87 d0 d2 bc b2 ad 0c bd a9 19 a9 bd 18 fe 32 bd
       -0.0257342 -0.034345336 -0.082568474 -0.043699354
000190 07 74 12 3d 07 c0 42 ba 9f 87 fd bc 0e eb e3 bd
       0.035755184 -0.0007429127 -0.030948458 -0.111288175
0001a0 57 97 0e be ab 16 b9 bd 58 b5 03 bd c5 dc db bc
       -0.13924919 -0.09037527 -0.032155365 -0.02683867
0001b0 e3 f4 88 3c ed 9f 98 3d ca 17 cc 3c b3 5a 28 3d
       0.016718334 0.074523784 0.024913687 0.041102123
0001c0 04 23 b0 3b 14 9b 9d 3c 9b 7e 76 3c 4d 15 84 bd
       0.005375268 0.019238986 0.0150448335 -0.06449375
0001d0 04 4c a7 bd b8 5c 80 bd 54 b4 fd bd 93 75 90 3a
       -0.08168796 -0.06267685 -0.123879105 0.0011021368
0001e0 7a e8 3c 3d c6 57 84 bd ff bc 52 3d 22 c9 d5 3d
       0.046120144 -0.06462054 0.051449772 0.10438754
0001f0 01 91 0b bd 40 00 0d be 10 5d 21 be 4a 39 a7 bd
       -0.034073833 -0.13769627 -0.15758157 -0.08165224
000200 c8 54 b7 3c ba 05 7a 3d db 17 d6 bb 60 b3 2d bd
       0.022379294 0.061040618 -0.0065336055 -0.042407393
000210 e6 bc 04 3c f8 4b 86 bd 0d 61 f7 bd b6 2b 47 3b
       0.0081016775 -0.06557459 -0.12079058 0.0030391044
000220 21 01 50 3d e3 5d 95 3d a5 11 83 3d 32 3c 90 3c
       0.050782327 0.07293298 0.0639985 0.017606828
000230 df e2 1f 3d 70 6e d4 3c 8b d6 2c bd b9 01 28 bd
       0.03903472 0.025931567 -0.04219679 -0.041017268
000240 91 ee 91 bd 07 28 95 bd 33 f8 86 bc 7b eb fc 3d
       -0.07125581 -0.07283025 -0.016475772 0.12349602
000250 cc 22 90 3d de 22 f8 3c 76 5d ae 3d c4 86 88 3b
       0.07037887 0.030290063 0.0851392 0.004166456
000260 0a 2b 44 3d 15 04 17 be 16 21 43 be 73 12 6b 3c
       0.047892608 -0.14747651 -0.1905559 0.01434766
000270 08 46 0a 3d 0c ab 88 3d 0d b3 a4 bc 91 03 bc bd
       0.033758193 0.066732496 -0.02010491 -0.09180368
000280 8f 0f 9f 3d a9 13 bc 3b ab 07 98 bd f2 a5 a1 3c
       0.077666394 0.0057396484 -0.074233375 0.01973245
000290 68 4a 15 3d 9b 85 a5 3d e4 90 d8 3d 49 f3 20 3c
       0.036447912 0.08082124 0.10574511 0.009823629
0002a0 a3 ec e8 bb 62 a1 d6 3c d6 ec 73 bd f9 75 44 bd
       -0.0071082874 0.0262 -0.059552036 -0.04796407
0002b0 90 83 b1 bd 89 da 12 be 33 cd bb 3c 57 6b 95 3d
       -0.08667672 -0.14341177 0.022924995 0.07295864
0002c0 a6 32 4b bd e5 1b 97 3d dc 45 48 3d 18 78 19 bd
       -0.04960885 0.07378367 0.048894748 -0.037468046
0002d0 63 31 8a 3d c3 7e 0e be fd a3 60 be 2f 42 e7 bd
       0.06747701 -0.13915543 -0.21937557 -0.112919204
0002e0 5f 96 a8 3c 6a a2 51 bd da 29 09 bd 96 52 8e bd
       0.020579515 -0.05118028 -0.03348718 -0.06949346
0002f0 d5 67 4f 3b c9 9a 00 3d ce bf b4 bd b2 89 ad bd
       0.0031647582 0.031397615 -0.08825646 -0.08473529
000300 6b 23 f2 bc ba 85 1c 3d 41 43 d4 3d ed b6 94 3d
       -0.029557904 0.03821347 0.1036439 0.07261453
000310 92 6d b3 3b c0 e5 5a 3b 45 b8 86 bd 4d cc 04 bd
       0.0054757083 0.0033401102 -0.065781154 -0.0324214
000320 a4 58 58 bd bd a7 0f be 32 b5 75 3c b0 5d eb 3c
       -0.05281891 -0.14028831 0.014996814 0.028731197
000330 d9 77 9b bd 9a 8d 5b 3d 1e fc 20 3d f9 19 dd 3c
       -0.075912185 0.05360184 0.039302938 0.026989924
000340 3f b4 5d 3d ee fd 52 bd 62 0d 3b be 44 9b c1 bd
       0.054126974 -0.051511697 -0.18266824 -0.09453443
000350 92 f5 bc 3c a7 66 d1 bd 88 20 aa bd f6 68 f1 bd
       0.023066316 -0.102246575 -0.08306986 -0.11787598
000360 5a 2d 64 3c 5e 91 a6 3d c5 7f 71 bd 21 01 72 bd
       0.013926828 0.08133195 -0.05895974 -0.059083108
000370 ef 55 27 bd 71 68 57 3d c6 77 82 3d 19 30 22 3c
       -0.040853437 0.052589837 0.06370501 0.009899163
000380 1d c3 9c bb 7f 66 16 3d 45 b4 94 bd 2d e3 2e bc
       -0.0047840015 0.03671884 -0.07260946 -0.01067428
000390 10 24 cb bd 17 1b b3 bd f5 e7 44 3d d6 f8 c6 bc
       -0.09918988 -0.08745401 0.048072774 -0.024288576
0003a0 8d 00 1b be 4b c7 da bc 8c f9 c4 bd f4 fd 93 3d
       -0.15136929 -0.026706358 -0.0961791 0.07226172
0003b0 bd ed 8e 3d bd 6e 44 bd f7 5a 0f be 05 f5 d8 bd
       0.06978939 -0.04795717 -0.13999544 -0.10593609
0003c0 6a 68 88 bd f0 b2 0f be e1 46 13 be c4 3e d3 bd
       -0.066605404 -0.14033103 -0.14382507 -0.10314706
0003d0 b0 36 37 bd 99 5c 86 3d 1c 9b 75 bd 45 ab cf bd
       -0.04472989 0.0656063 -0.059962377 -0.10140089
0003e0 95 53 8b 3b 3d 38 db 39 e8 60 07 3d 71 2e ea 3c
       0.004251907 0.00041812836 0.0330514 0.028586598
0003f0 56 94 05 3d 9b 56 9f 3d a7 80 e2 bc ec fc 86 bb
       0.032612167 0.077801906 -0.027649237 -0.004119506

sequence.1.bias f4 [20]
000000 f7 fd fe 3d cb a4 a6 3e 9e 9c 94 be 55 b1 a5 3e
       0.12450784 0.32547602 -0.2902574 0.32361856
000010 17 93 a3 3e 5d 1a bd 3d 61 48 88 3f b9 27 94 3e
       0.31948158 0.09233544 1.0647088 0.28936556
000020 60 8b 0e 3f 51 a6 43 3e 8e c5 1e 3f 60 08 25 3f
       0.5568142 0.19106413 0.62020195 0.64465904
000030 43 61 fa be 60 e0 81 3d d4 65 15 be 5c 14 2a bd
       -0.4890233 0.06341624 -0.14589626 -0.041523322
000040 bb 73 b7 3d f2 d3 22 3f dd b6 e8 3e 0c 96 d1 bc
       0.08957621 0.6360465 0.45452014 -0.025584243

sequence.3.weight f4 [10, 20]
000000 c9 b8 88 be 34 ec bd 3d e4 3d 2b 3e 81 7b 07 be
       -0.2670348 0.09273568 0.16722828 -0.13230707
000010 83 e8 10 3f 52 dc 1d be 6d 3d cd 3e 4e 69 17 3c
       0.56604785 -0.15416077 0.40085927 0.009241415
000020 39 d5 00 bf 1e 12 46 3e 23 f1 36 3e 27 dd 6a 3f
       -0.5032535 0.19342849 0.17865424 0.917437
000030 65 3c 6a 3d 05 e8 80 3e 5a 60 74 3e bc 06 5e 3e
       0.057186503 0.25177017 0.2386488 0.21682256
000040 c2 99 8d 3d bb 7e fc be 1f be 0f 3f ae 33 ea bc
       0.069140926 -0.49315438 0.56149477 -0.028589096
000050 20 2d ad be 91 26 27 bd bb 99 12 3f e1 2d 09 bf
       -0.3382349 -0.040808264 0.57265824 -0.5358563
000060 b0 b7 7b 3f 0f 05 86 be c5 07 f7 be c8 0d 9b 3f
       0.9832716 -0.26175734 -0.48248115 1.2113581
000070 aa 2a 5a be 05 04 25 bc fe 41 ad bd d9 4c f5 be
       -0.21305338 -0.010071759 -0.08459853 -0.47910193
000080 a7 09 9c 3d ab ea 1c bd b7 ba 5b 3e 63 c8 30 3e
       0.076190285 -0.038309734 0.21457945 0.17263941
000090 d2 6c 04 3e b1 66 ac be 70 70 4e bf 78 c0 97 bd
       0.12932137 -0.33672097 -0.80640316 -0.074097574
0000a0 68 60 bd bd 0d 02 ca be 66 ce ab be 97 61 62 3e
       -0.09246904 -0.3945469 -0.33555907 0.2210754
0000b0 26 1e db 3c 34 35 8c bd e6 f9 0a 3f 21 f3 e3 3d
       0.026747774 -0.06846085 0.54287565 0.111303575
0000c0 7c ea 47 3e 38 a0 11 be c6 8f 4f 3f f4 d9 04 bf
       0.19523042 -0.14221275 0.81078756 -0.5189507
0000d0 62 41 48 3f c3 27 01 3f e8 95 85 3e 17 35 96 3c
       0.78224766 0.50451297 0.26090932 0.018335862
0000e0 58 53 ed bc e4 a2 39 bf c7 3c 45 3e 1b 34 b8 3d
       -0.028970405 -0.72514176 0.19261466 0.08994313
0000f0 50 2e 25 3f c0 71 0d bf 78 80 f5 bd 3f 14 df 3e
       0.6452379 -0.55251694 -0.11987394 0.43570134
000100 9c b2 82 3d 5b c3 6f be 68 78 06 3f dc 79 3f 3f
       0.06381723 -0.23414366 0.52527475 0.7479532
000110 56 01 9d bc 4b eb 81 be fb a7 15 be 44 63 f2 be
       -0.019165676 -0.25374827 -0.1461486 -0.4734136
000120 ac 16 10 bf b6 e2 ee bc c8 93 4f 3e a1 0f 19 3e
       -0.56284595 -0.029160839 0.20271218 0.14947368
000130 46 cf c5 3d f7 af ed be f2 58 15 3f 97 d2 ac bd
       0.09658675 -0.46423313 0.58338845 -0.08438604
000140 9b 76 f5 3c 9a 22 0e bf 4f a1 c6 3d 9b 25 2a 3f
       0.029963782 -0.5552155 0.09698736 0.6646363
000150 d4 8f 85 be fc c2 02 3e 43 2d 07 bf 2d fa ed 3d
       -0.26086295 0.12769693 -0.5280344 0.11619983
000160 d8 51 3f 3f c5 12 4c be 2e e1 9c be 5b 06 54 bf
       0.7473426 -0.19929035 -0.30640548 -0.828222
000170 1d 15 19 3f 40 81 18 3e 18 f7 25 3f 24 d5 47 be
       0.5979784 0.14893055 0.6483016 -0.195149
000180 2e f1 61 3e 52 1f 39 bf d0 06 e6 3e 39 a8 de 3d
       0.22064659 -0.72313416 0.44927073 0.1087193
000190 6c c6 92 be 5a 7d 01 3f 81 71 85 bf a6 0c 3c 3f
       -0.2866701 0.50581896 -1.0425264 0.734568
0001a0 de 50 4c bf 30 69 35 3f 2c fa a8 3e db 95 fe 3e
       -0.79810894 0.7086363 0.33003366 0.49723706
0001b0 96 97 2e 3f 81 83 b4 3e d0 ba 26 3f 71 91 2a 3f
       0.6820005 0.3525658 0.65128803 0.66628176
0001c0 3a c7 87 bf f0 01 18 3f 93 3a 8e bf 9a e4 c6 bd
       -1.0607674 0.59377956 -1.1111625 -0.09711571
0001d0 a6 49 9e 3e 08 a1 41 3f 23 18 7b bf 57 a6 10 be
       0.30915564 0.7563634 -0.98083705 -0.14125954
0001e0 6a ab 04 bf 0a 94 05 3f dc bf 4d be 0f 81 97 be
       -0.5182406 0.52179015 -0.2009272 -0.2959065
0001f0 5c 1f 11 3f d2 8b 78 be 27 5d dd 3a ec 47 47 be
       0.56688476 -0.24272087 0.0016888723 -0.1946103
000200 9e ec 36 3f e8 a7 15 bd e8 31 5e be ba 2c bc 3e
       0.714548 -0.03653708 -0.21698725 0.36752874
000210 27 52 9e 3e d7 a4 15 bf 47 4d c5 3c 00 9a d7 3d
       0.30922052 -0.5845465 0.0240847 0.1052742
000220 fd ee 8b bc 72 a1 5c bf 50 29 58 3f ae d5 26 3e
       -0.017081732 -0.86183846 0.8443804 0.1629245
000230 72 65 29 be b0 9a 28 bf 47 d4 9c 3e 44 4c c6 be
       -0.16542605 -0.65861034 0.30630705 -0.3873006
000240 55 0f d7 3e 84 53 a2 be 94 4c b1 3e 12 43 3d bf
       0.42003885 -0.31704342 0.34628737 -0.73930466
000250 0c 66 1c bf 9f df 7b 3e 06 fe cb be 2c f6 a1 be
       -0.6109321 0.24597023 -0.39842242 -0.31633127
000260 12 25 25 bf 01 f1 ba bb 6a 9c 2c bf 1d a2 52 be
       -0.6450969 -0.0057049994 -0.6742617 -0.20569654
000270 90 21 ed 3d 52 75 ba 3f d3 ea d5 be 0d 5b e4 bb
       0.11578667 1.4567053 -0.4178072 -0.006968862
000280 c3 87 54 3f 0b 38 06 3f be a8 65 be 8a e6 ac be
       0.83019656 0.52429265 -0.22427651 -0.33769637
000290 a2 e9 6e be f2 61 5c bf eb 51 f9 be 5b f3 5b bf
       -0.23331311 -0.8608695 -0.4869531 -0.85918206
0002a0 3c c2 40 3d 22 8a b4 be 86 ba 38 bc 20 3e 7a 3e
       0.047060236 -0.35261637 -0.011274939 0.24437761
0002b0 90 0c a2 3d 65 d9 f1 3d f8 4c 7d 3f d3 e1 ac bd
       0.07912552 0.11809043 0.9894557 -0.0844151
0002c0 fd 63 8e be b2 3c 20 3f cb 25 a4 be 04 26 51 3d
       -0.2781066 0.62592614 -0.32060084 0.051061645
0002d0 06 eb 1b 3e 1b 88 1f 3f 65 84 1a 3f fb f5 c9 be
       0.15226373 0.62317055 0.6035827 -0.3944548
0002e0 31 f3 27 bf 47 dc 14 3f 22 4f 5c be 16 fe 32 be
       -0.65605456 0.58148617 -0.21514562 -0.17479739
0002f0 b4 4a aa bf 39 b3 24 3e 79 96 10 bf 4f 5a 83 bd
       -1.3304048 0.16083993 -0.56479603 -0.06413709
000300 dc 3f 7c 3e 31 21 7a be cc f6 7d bf b6 48 31 3d
       0.24633735 -0.24426724 -0.9920471 0.043282233
000310 65 ae b6 be 8d 0c 66 3f db df be be b2 4d db 3b
       -0.35679927 0.898629 -0.37280163 0.0066926116

sequence.3.bias f4 [10]
000000 71 bd fa 3d bc ec 14 be 80 bc 91 3e 25 6e b7 3e
       0.12243164 -0.14543432 0.28464127 0.3582622
000010 a2 2a 04 bf f4 78 65 3f db ec 04 3f bd 2b a9 3d
       -0.5162755 0.89637685 0.5192391 0.082602955
000020 97 85 3d be 10 08 6c bf
       -0.18507992 -0.921998
